recordings/ayam/ayam_d588d133-4dfc-4228-bfec-b5f0ae20087c_mfcc.npy (npy, 8604 bytes, 1 tensors)

array f4 [13, 163]
-700.37054 -700.37054 -700.37054 -615.9202 -580.56433 -599.4946 -591.31226 -587.851
-596.90356 -595.36206 -590.9662 -586.761 -595.2004 -607.7494 -602.923 -600.66675
-590.3812 -592.0467 -596.67316 -592.41516 -586.8473 -589.4937 -586.82306 -585.11914
-592.81714 -599.978 -604.0021 -607.87555 -608.8883 -604.92865 -595.4961 -600.6609
-602.5009 -594.5137 -602.8093 -617.50244 -616.4646 -616.5407 -618.1981 -610.1083
-609.72205 -591.2491 -606.1611 -602.6664 -604.34796 -605.01636 -597.37384 -609.40405
-611.15356 -602.6433 -597.52026 -594.73737 -601.8921 -604.5984 -602.4422 -597.0754
-597.702 -606.41187 -604.23016 -607.67444 -592.9326 -592.3179 -589.78186 -594.9411
-592.43774 -585.0115 -591.9346 -603.0884 -603.7014 -592.5611 -591.0247 -585.35767
-584.6389 -582.9588 -584.86304 -587.0158 -587.3388 -598.8603 -588.8252 -585.63324
-584.83997 -586.74884 -592.62885 -600.314 -596.1045 -598.21594 -587.2815 -548.2443
-408.44116 -379.01428 -355.165 -352.26685 -352.24048 -343.90933 -331.25525 -324.2122
-321.781 -323.53183 -304.92657 -314.4217 -306.89105 -308.28293 -323.48676 -322.3955
-313.6252 -319.62357 -325.6515 -339.1041 -357.92206 -376.6311 -383.80002 -379.56253
-401.06937 -387.14484 -385.14526 -383.22864 -357.47467 -324.00458 -300.3956 -282.6627
-277.4912 -263.971 -251.11642 -256.40054 -259.30124 -264.83484 -256.7786 -256.72366
-262.9226 -273.16855 -293.25916 -342.20807 -376.6572 -396.05643 -396.45346 -391.93753
-406.95773 -419.38724 -422.3858 -437.77014 -444.90543 -454.67618 -473.73312 -488.5509
-494.19455 -496.20554 -511.04028 -519.39496 -522.55426 -533.54156 -541.9341 -552.5793
-550.3212 -551.5573 -555.54565 -568.07935 -559.47046 -568.41473 -581.861 -589.6091
-586.09973 -590.71704 -624.21484 0.0 0.0 0.0 62.624474 67.90199
55.54237 58.14657 71.247116 58.309517 65.675606 59.555748 66.271164 59.014297
47.415413 57.47843 51.918728 58.376537 57.31629 52.93991 48.656628 49.454414
46.990524 59.07994 59.539093 55.11355 46.520496 51.126694 39.402016 43.56793
49.045868 53.506145 48.57714 41.399654 42.219124 48.918472 41.355156 48.52282
50.1091 48.694252 53.607452 51.01538 59.001892 55.01481 52.22608 50.236404
58.727406 63.758263 50.95455 52.00425 58.99431 64.91632 72.80295 61.483574
61.772026 63.52923 58.22283 54.07924 45.889435 55.56568 55.841644 67.799194
65.26457 65.328896 59.233505 60.954884 63.77865 58.33229 55.11862 51.152504
63.77775 60.24736 58.11217 54.939682 55.91381 56.939354 61.441326 64.840515
54.418655 57.702133 61.427834 63.615177 63.510284 53.044006 50.999496 54.0811
54.002075 62.789623 65.06952 167.81857 206.40366 215.45374 219.12512 215.15082
00000000: b717 2fc4 b717 2fc4 b717 2fc4 e5fa 19c4
00000010: 1e24 11c4 a8df 15c4 fcd3 13c4 77f6 12c4
00000020: d439 15c4 2cd7 14c4 d6bd 13c4 b4b0 12c4
00000030: d3cc 14c4 f6ef 17c4 12bb 16c4 ac2a 16c4
00000040: 6698 13c4 fd02 14c4 152b 15c4 921a 14c4
00000050: 3ab6 12c4 995f 13c4 adb4 12c4 a047 12c4
00000060: 4c34 14c4 98fe 15c4 2200 17c4 09f8 17c4
00000070: da38 18c4 6f3b 17c4 c0df 14c4 4c2a 16c4
00000080: 0fa0 16c4 e0a0 14c4 ccb3 16c4 2860 1ac4
00000090: bc1d 1ac4 9b22 1ac4 ae8c 1ac4 ee86 18c4
000000a0: 366e 18c4 f1cf 13c4 4f8a 17c4 a6aa 16c4
000000b0: 4516 17c4 0c41 17c4 ed57 15c4 dc59 18c4
000000c0: d4c9 18c4 2ca9 16c4 4c61 15c4 31af 14c4
000000d0: 1879 16c4 4c26 17c4 4d9c 16c4 d344 15c4
000000e0: ee6c 15c4 5c9a 17c4 bb0e 17c4 2aeb 17c4
000000f0: b03b 14c4 5814 14c4 0a72 13c4 3bbc 14c4
00000100: 041c 14c4 bc40 12c4 d0fb 13c4 a8c5 16c4
00000110: e4ec 16c4 e923 14c4 95c1 13c4 e456 12c4
00000120: e428 12c4 5dbd 11c4 3c37 12c4 03c1 12c4
00000130: afd5 12c4 0fb7 15c4 d034 13c4 8768 12c4
00000140: c235 12c4 edaf 12c4 3f28 14c4 1914 16c4
00000150: b006 15c4 d28d 15c4 04d2 12c4 a30f 09c4
00000160: 7838 ccc3 d481 bdc3 1f95 b1c3 2822 b0c3
00000170: c81e b0c3 65f4 abc3 aca0 a5c3 291b a2c3
00000180: f8e3 a0c3 13c4 a1c3 9a76 98c3 fa35 9dc3
00000190: 0e72 99c3 3724 9ac3 4ebe a1c3 a032 a1c3
000001a0: 07d0 9cc3 d1cf 9fc3 64d3 a2c3 538d a9c3
000001b0: 06f6 b2c3 c850 bcc3 67e6 bfc3 01c8 bdc3
000001c0: e188 c8c3 8a92 c1c3 9892 c0c3 449d bfc3
000001d0: c2bc b2c3 9600 a2c3 a332 96c3 d354 8dc3
000001e0: e0be 8ac3 4afc 83c3 ce1d 7bc3 4533 80c3
000001f0: 8fa6 81c3 dc6a 84c3 a963 80c3 a15c 80c3
00000200: 1876 83c3 9395 88c3 2ca1 92c3 a21a abc3
00000210: 1f54 bcc3 3907 c6c3 0b3a c6c3 01f8 c3c3
00000220: 977a cbc3 91b1 d1c3 6231 d3c3 94e2 dac3
00000230: e573 dec3 8d56 e3c3 d7dd ecc3 8446 f4c3
00000240: e718 f7c3 4f1a f8c3 2885 ffc3 47d9 01c4
00000250: 79a3 02c4 a962 05c4 c87b 07c4 1325 0ac4
00000260: 8f94 09c4 abe3 09c4 ece2 0ac4 1405 0ec4
00000270: 1cde 0bc4 8b1a 0ec4 1b77 11c4 fb66 13c4
00000280: 6286 12c4 e4ad 13c4 c00d 1cc4 0000 0000
00000290: 0000 0000 0000 0000 767f 7a42 d2cd 8742
000002a0: 632b 5e42 1696 6842 867e 8e42 f23c 6942
000002b0: e959 8342 1639 6e42 d68a 8442 a40e 6c42
000002c0: 62a9 3d42 eae9 6542 c7ac 4f42 9381 6942
000002d0: e243 6542 78c2 5342 63a0 4242 52d1 4542
000002e0: 4cf6 3b42 dc51 6c42 0828 6e42 4674 5c42
000002f0: fd14 3a42 bc81 4c42 aa9b 1d42 8f45 2e42
00000300: f82e 4442 4b06 5642 fe4e 4242 3f99 2542
00000310: 62e0 2842 84ac 4342 ae6b 2542 5e17 4242
00000320: b86f 4842 eac6 4242 086e 5642 c00f 4c42
00000330: f001 6c42 2a0f 5c42 82e7 5042 14f2 4842
00000340: dde8 6a42 7608 7f42 76d1 4b42 5a04 5042
00000350: 2cfa 6b42 28d5 8142 1c9b 9142 2eef 7542
00000360: 8e16 7742 ee1d 7e42 2ee4 6842 2451 5842
00000370: c88e 3742 4243 5e42 d85d 5f42 3099 8742
00000380: 7687 8242 65a8 8242 1cef 6c42 cdd1 7342
00000390: 561d 7f42 4454 6942 7879 5c42 2a9c 4c42
000003a0: 6a1c 7f42 4cfd 7042 dd72 6842 3cc2 5b42
000003b0: bea7 5f42 e6c1 6342 ebc3 7542 58ae 8142
000003c0: b4ac 5942 fcce 6642 1ab6 7542 f175 7e42
000003d0: 880a 7e42 102d 5442 7cff 4b42 0c53 5842
000003e0: 2002 5842 9328 7b42 9823 8242 8ed1 2743
000003f0: 5667 4e43 2874 5743 0820 5b43 9c26 5743
