recordings/ayam/ayam_b4383b7e-fd8b-435e-bb27-d5a393694a0f_mfcc.npy (npy, 8604 bytes, 1 tensors)

array f4 [13, 163]
000000 45 a7 39 c4 45 a7 39 c4 6b 47 14 c4 c9 1d 0d c4
       -742.6136 -742.6136 -593.1159 -564.4654
000010 4f af 09 c4 fd a2 09 c4 b6 bc 0b c4 b0 76 0d c4
       -550.7392 -550.5467 -558.9486 -565.8545
000020 c5 e6 0e c4 05 bd 0e c4 e7 86 11 c4 de f8 0e c4
       -571.6058 -570.9534 -582.10785 -571.88855
000030 a7 a5 0f c4 37 6e 12 c4 3d 2a 11 c4 43 43 10 c4
       -574.5883 -585.7221 -580.66 -577.05096
000040 be b5 10 c4 27 42 11 c4 45 59 14 c4 0b f4 12 c4
       -578.8397 -581.0336 -593.39484 -587.8132
000050 ef 0b 13 c4 fe 8f 12 c4 fc f5 14 c4 b2 23 13 c4
       -588.18646 -586.2499 -595.8435 -588.55774
000060 10 d5 14 c4 cc c4 15 c4 5b a8 14 c4 43 25 14 c4
       -595.3291 -599.07495 -594.63055 -592.5822
000070 a0 53 13 c4 f6 13 14 c4 23 f1 14 c4 85 2f 15 c4
       -589.30664 -592.3119 -595.76776 -596.7425
000080 79 23 15 c4 9c 94 13 c4 0d 90 15 c4 f7 af 14 c4
       -596.55426 -590.322 -598.2508 -594.74945
000090 2c 59 12 c4 4f 12 0e c4 61 3a 0f c4 34 ab 0e c4
       -585.3933 -568.2861 -572.9122 -570.67505
0000a0 27 75 10 c4 c1 2b 0b c4 39 70 09 c4 0e 84 07 c4
       -577.8305 -556.68365 -549.7535 -542.06335
0000b0 93 b7 07 c4 b4 73 06 c4 5d 48 04 c4 94 eb 05 c4
       -542.86835 -537.80786 -529.1307 -535.6809
0000c0 83 f0 06 c4 54 a3 07 c4 c0 02 06 c4 6d fd 04 c4
       -539.758 -542.552 -536.04297 -531.9598
0000d0 e8 4c 04 c4 c4 bd 05 c4 21 14 0a c4 42 d0 08 c4
       -529.20166 -534.9651 -552.3145 -547.254
0000e0 dd 71 03 c4 d8 9b 02 c4 84 fc 05 c4 0b aa 06 c4
       -525.7791 -522.43506 -535.94556 -538.6569
0000f0 39 7a 05 c4 44 1d 04 c4 56 ef 02 c4 d1 8b 05 c4
       -533.9097 -528.4573 -523.7396 -534.18463
000100 47 46 05 c4 3d f0 06 c4 69 0f 00 c4 ef 79 b8 c3
       -533.0981 -539.7537 -512.2408 -368.9526
000110 0b f0 a7 c3 0d b7 a1 c3 75 6d 9b c3 22 06 8f c3
       -335.87534 -323.43008 -310.85513 -286.0479
000120 80 80 8c c3 96 3f 8e c3 33 f5 8b c3 70 ad 8c c3
       -281.0039 -284.49677 -279.91562 -281.35498
000130 eb 2a 8a c3 84 e4 8c c3 e7 07 8a c3 25 52 89 c3
       -276.3353 -281.78528 -276.06174 -274.64175
000140 8a 03 8d c3 85 c1 88 c3 09 7e 86 c3 77 e8 8e c3
       -282.02765 -273.51187 -268.98465 -285.81613
000150 bd 70 96 c3 c1 ec 8e c3 18 db 92 c3 94 9d 99 c3
       -300.88077 -285.84964 -293.71167 -307.23108
000160 e2 cc 9e c3 8c 3d a6 c3 bc f1 ae c3 24 47 b6 c3
       -317.60065 -332.48083 -349.88855 -364.5558
000170 89 a5 b7 c3 0d 6d bb c3 b3 ec be c3 c1 1c be c3
       -367.29324 -374.85196 -381.8492 -380.22464
000180 5c bd c1 c3 04 57 c4 c3 d2 64 b9 c3 04 e8 a8 c3
       -387.47937 -392.6798 -370.78766 -337.81262
000190 64 7a 93 c3 55 72 8e c3 24 b3 89 c3 b2 ea 85 c3
       -294.95618 -284.89322 -275.39954 -267.83356
0001a0 0d e3 7c c3 e4 88 81 c3 65 5a 82 c3 e5 74 82 c3
       -252.88692 -259.06946 -260.7062 -260.91324
0001b0 aa 4b 8d c3 3d 00 95 c3 5b 36 9c c3 f5 9d b0 c3
       -282.59113 -298.00186 -312.42465 -353.23404
0001c0 29 86 c6 c3 1d 3c c4 c3 d8 01 ca c3 7f e5 cf c3
       -397.04813 -392.46964 -404.0144 -415.79294
0001d0 7b 99 db c3 93 04 dd c3 55 4b db c3 cf b0 db c3
       -439.19907 -442.03574 -438.58853 -439.38132
0001e0 c8 c5 e1 c3 14 a7 e9 c3 5e 72 e9 c3 83 2c e6 c3
       -451.54517 -467.3053 -466.8935 -460.34775
0001f0 7b 52 e6 c3 25 e3 ee c3 f7 86 f6 c3 f4 c8 f8 c3
       -460.64438 -477.77457 -493.0544 -497.56995
000200 4b 18 f9 c3 6e bc 00 c4 fa b5 05 c4 3e 10 08 c4
       -498.1898 -514.9442 -534.8434 -544.2538
000210 be ff 04 c4 1b 6f 05 c4 d5 28 05 c4 44 0c 07 c4
       -531.996 -533.736 -532.638 -540.19165
000220 6d 7c 07 c4 e6 15 04 c4 79 c3 02 c4 82 d8 00 c4
       -541.94415 -528.34216 -523.05426 -515.38293
000230 13 c0 02 c4 48 bc 04 c4 47 f7 06 c4 d8 39 07 c4
       -523.00116 -530.9419 -539.8637 -540.9038
000240 2c 60 08 c4 03 1e 09 c4 bf bf 09 c4 cf c2 08 c4
       -545.5027 -548.46893 -550.99603 -547.0439
000250 4f 9a 06 c4 d9 f7 05 c4 52 d1 09 c4 ea 38 0b c4
       -538.4111 -535.8726 -551.2706 -556.8893
000260 04 3d 09 c4 76 06 05 c4 38 00 03 c4 b1 ce 02 c4
       -548.95337 -532.10095 -524.0034 -523.22955
000270 50 f4 02 c4 99 e2 01 c4 5a 2e 04 c4 33 41 03 c4
       -523.8174 -519.5406 -528.72424 -525.01874
000280 7e fa 06 c4 fc 1e 08 c4 e7 0d 0b c4 00 00 00 00
       -539.91394 -544.48413 -556.2172 0.0
000290 00 00 00 00 f3 75 81 42 36 b5 77 42 77 c5 29 42
       0.0 64.73037 61.926964 42.442837
0002a0 cc 25 c4 41 4e cb 18 42 50 66 32 42 e2 12 41 42
       24.518456 38.19854 44.599915 48.26844
0002b0 e2 81 47 42 32 69 0f 42 58 f8 45 42 e1 6e 58 42
       49.87684 35.85273 49.492523 54.10828
0002c0 f2 d2 5e 42 22 69 7b 42 a4 50 84 42 10 e9 72 42
       55.706 62.85267 66.1575 60.7276
0002d0 be cb 64 42 ad c9 3d 42 a0 52 69 42 f4 66 6d 42
       57.198967 47.44695 58.33069 59.35054
0002e0 a5 50 57 42 88 03 50 42 10 3e 59 42 ca e6 3e 42
       53.828754 52.00345 54.310608 47.72538
0002f0 b6 07 4b 42 64 77 54 42 b8 e8 77 42 db 7d 6d 42
       50.75753 53.116592 61.977264 59.372906
000300 9a 8d 51 42 98 01 51 42 c1 87 47 42 51 90 4e 42
       52.388283 52.251556 49.882572 51.640934
000310 7e b1 71 42 a6 38 4f 42 35 30 6e 42 9e c0 6e 42
       60.423332 51.80532 59.547077 59.688103
000320 0c 88 90 42 59 48 79 42 1c 4f 85 42 1d 29 61 42
       72.26572 62.320652 66.65451 56.29015
000330 c0 6e 98 42 e1 bb a0 42 08 2f b9 42 d0 8a b0 42
       76.21631 80.36695 92.59186 88.27112
000340 48 f9 b4 42 36 f5 b2 42 8e 49 9d 42 0a 41 9c 42
       90.48688 89.47893 78.64366 78.12703
000350 02 04 89 42 e0 a8 6b 42 7a 1a 4e 42 0f c6 5b 42
       68.50783 58.914917 51.525856 54.943417
000360 2e ee 53 42 94 db 43 42 dc 2f 52 42 44 a8 5a 42
       52.982597 48.96443 52.546738 54.66432
000370 42 ef 68 42 b6 19 5b 42 ba 27 5f 42 4e 28 8e 42
       58.23365 54.77511 55.788795 71.07872
000380 74 bc a8 42 58 ab a3 42 84 9f 94 42 f4 90 a0 42
       84.36807 81.834656 74.311554 80.28311
000390 af a1 a5 42 2a e3 cb 42 32 0a 40 43 6e 96 4b 43
       82.81579 101.94368 192.03983 203.58762
0003a0 03 53 4f 43 5c d4 59 43 1a 3b 57 43 06 73 5d 43
       207.32426 217.82953 215.23087 221.44931
0003b0 f0 4d 55 43 a0 db 54 43 d2 6c 4e 43 f9 ee 54 43
       213.30444 212.85791 206.42508 212.93349
0003c0 46 f4 4e 43 ba 49 44 43 f4 6e 4a 43 fa bd 4c 43
       206.9542 196.288 202.43341 204.7421
0003d0 1a 74 4b 43 70 33 4b 43 d0 21 41 43 ab f6 38 43
       203.45352 203.20093 193.13208 184.96355
0003e0 7e 33 33 43 6a 59 28 43 d7 a2 1c 43 cd 21 10 43
       179.20114 168.34927 156.6361 144.13203
0003f0 f5 81 fa 42 ac 79 f7 42 8a d2 f2 42 f4 d6 e9 42
       125.25382 123.73764 121.41121 116.91983
