recordings/ayam/ayam_6b2e728b-78c3-4b58-b35d-b7c2b0f37644_mfcc.npy (npy, 9020 bytes, 1 tensors)

array f4 [13, 171]
-706.8059 -706.8059 -706.8059 -626.5941 -596.50464 -594.3269 -602.35175 -604.50726
-598.4591 -587.6394 -585.0752 -593.88086 -596.5629 -604.4661 -602.25006 -602.3113
-596.33624 -605.7997 -605.2375 -598.03406 -596.64014 -599.43304 -603.9062 -597.13873
-606.60754 -603.971 -608.53046 -610.7966 -602.1573 -600.34576 -590.086 -588.53845
-598.2106 -587.8893 -596.2173 -607.3806 -609.25275 -609.28375 -599.5176 -576.52423
-583.0622 -553.0123 -576.0364 -583.51855 -582.2505 -574.5584 -584.5269 -602.3179
-590.74316 -593.5812 -589.0927 -601.37085 -595.53174 -603.2149 -607.22766 -607.5421
-598.6086 -623.2012 -605.7247 -598.9667 -606.4895 -595.9351 -604.1963 -608.80194
-597.8472 -599.43286 -603.617 -616.6151 -602.4112 -601.7802 -597.18536 -600.3031
-604.1806 -611.34906 -611.85815 -620.67365 -614.63245 -618.3979 -602.8158 -593.37085
-596.82684 -602.2585 -613.19556 -599.8882 -604.58417 -607.9258 -607.87823 -598.27545
-595.18176 -569.3575 -437.661 -378.9905 -348.0937 -331.1913 -320.0328 -321.51147
-322.01303 -330.38977 -331.7462 -321.03308 -315.92557 -315.23532 -294.3258 -297.6157
-311.20825 -303.54007 -316.17874 -300.00204 -310.0025 -319.59805 -326.27206 -351.1885
-357.28198 -365.8935 -373.5301 -388.55865 -391.6706 -401.1532 -392.24606 -365.27536
-336.27255 -308.42227 -291.7553 -275.0036 -269.87692 -272.8093 -271.89578 -259.3195
-256.1103 -257.42795 -264.22192 -269.53568 -266.6358 -287.15945 -316.9695 -363.15778
-378.38644 -381.60638 -398.1782 -406.72104 -418.98926 -433.9823 -444.26102 -461.24475
-472.10007 -482.09964 -494.6067 -491.8884 -502.73795 -503.25708 -523.05 -536.459
-548.38727 -562.84985 -552.81445 -558.8127 -576.43823 -573.8959 -567.5692 -566.32544
-582.0759 -595.64777 -579.8127 -586.99536 -582.5185 -580.2563 -597.21796 -583.11993
-587.04297 -588.4894 -595.1102 0.0 0.0 0.0 57.818287 59.57683
66.06253 56.781376 62.839394 59.49627 65.88037 69.1888 63.883163 58.08865
54.61714 51.83242 52.31767 58.092857 54.493744 56.996017 59.076366 59.00077
56.818924 48.423725 54.584362 47.20423 54.552635 50.915657 47.04091 52.92581
56.417892 59.9971 58.472523 51.92135 58.673584 54.578835 43.815376 46.36734
47.67119 55.61007 26.010603 45.74861 30.797443 43.93663 58.96106 55.205704
58.63724 55.55683 44.89581 57.2455 54.283638 54.5878 52.60501 47.679703
44.200165 53.045433 45.43186 43.44423 37.841476 43.1244 51.679802 41.22268
44.11164 45.825172 44.80823 51.976234 48.42675 51.944603 46.720192 48.457047
57.7785 55.68541 53.535522 55.584057 45.879936 49.452316 51.21488 51.49156
47.063812 56.523247 59.40066 58.87429 51.2662 46.250984 58.311604 55.136723
00000000: 94b3 30c4 94b3 30c4 94b3 30c4 06a6 1cc4
00000010: 4c20 15c4 ec94 14c4 8396 16c4 7720 17c4
00000020: 629d 15c4 ece8 12c4 d044 12c4 6078 14c4
00000030: 0724 15c4 d51d 17c4 0190 16c4 ec93 16c4
00000040: 8515 15c4 2e73 17c4 334f 17c4 2e82 15c4
00000050: f828 15c4 b7db 15c4 fff9 16c4 e148 15c4
00000060: e2a6 17c4 25fe 16c4 f321 18c4 fbb2 18c4
00000070: 118a 16c4 2116 16c4 8185 13c4 7622 13c4
00000080: 7a8d 15c4 eaf8 12c4 e80d 15c4 5cd8 17c4
00000090: 2d50 18c4 2952 18c4 20e1 15c4 8d21 10c4
000000a0: fbc3 11c4 ca40 0ac4 5402 10c4 30e1 11c4
000000b0: 0890 11c4 bda3 0fc4 b921 12c4 5894 16c4
000000c0: 90af 13c4 3265 14c4 ef45 13c4 bc57 16c4
000000d0: 08e2 14c4 c1cd 16c4 92ce 17c4 b2e2 17c4
000000e0: f3a6 15c4 e0cc 1bc4 616e 17c4 debd 15c4
000000f0: 549f 17c4 d9fb 14c4 900c 17c4 5333 18c4
00000100: 3976 15c4 b4db 15c4 7de7 16c4 5e27 1ac4
00000110: 519a 16c4 ef71 16c4 dd4b 15c4 6613 16c4
00000120: 8f0b 17c4 57d6 18c4 ecf6 18c4 1d2b 1bc4
00000130: 7aa8 19c4 7799 1ac4 36b4 16c4 bc57 14c4
00000140: eb34 15c4 8b90 16c4 844c 19c4 d8f8 15c4
00000150: 6325 17c4 40fb 17c4 35f8 17c4 a191 15c4
00000160: a2cb 14c4 e156 0ec4 9cd4 dac3 c97e bdc3
00000170: fe0b aec3 7d98 a5c3 3304 a0c3 78c1 a0c3
00000180: ab01 a1c3 e431 a5c3 83df a5c3 3c84 a0c3
00000190: 79f6 9dc3 1f9e 9dc3 b429 93c3 cfce 94c3
000001a0: a89a 9bc3 21c5 97c3 e116 9ec3 4300 96c3
000001b0: 5200 9bc3 8dcc 9fc3 d322 a3c3 2198 afc3
000001c0: 18a4 b2c3 5ef2 b6c3 dac3 bac3 8247 c2c3
000001d0: d6d5 c3c3 9c93 c8c3 7f1f c4c3 3fa3 b6c3
000001e0: e322 a8c3 0d36 9ac3 aee0 91c3 7680 89c3
000001f0: 3ff0 86c3 9767 88c3 a9f2 87c3 e5a8 81c3
00000200: 1e0e 80c3 c7b6 80c3 681c 84c3 91c4 86c3
00000210: 6251 85c3 6994 8fc3 197c 9ec3 3294 b5c3
00000220: 7731 bdc3 9ecd bec3 cf16 c7c3 4b5c cbc3
00000230: a07e d1c3 bcfd d8c3 6921 dec3 549f e6c3
00000240: cf0c ecc3 c10c f1c3 a84d f7c3 b7f1 f5c3
00000250: 755e fbc3 e8a0 fbc3 33c3 02c4 601d 06c4
00000260: c918 09c4 64b6 0cc4 2034 0ac4 03b4 0bc4
00000270: 0c1c 10c4 5679 0fc4 6ee4 0dc4 d494 0dc4
00000280: dc84 11c4 75e9 14c4 03f4 10c4 b4bf 12c4
00000290: 2fa1 11c4 6710 11c4 f34d 15c4 adc7 11c4
000002a0: c0c2 12c4 521f 13c4 0ec7 14c4 0000 0000
000002b0: 0000 0000 0000 0000 ed45 6742 ad4e 6e42
000002c0: 0420 8442 2120 6342 8a5b 7b42 2efc 6d42
000002d0: c0c2 8342 aa60 8a42 5c88 7f42 c75a 6842
000002e0: f477 5a42 6654 4f42 4b45 5142 165f 6842
000002f0: 98f9 5942 ecfb 6342 334e 6c42 ca00 6c42
00000300: 9446 6342 e5b1 4142 6356 5a42 22d1 3c42
00000310: e635 5a42 a2a9 4b42 e429 3c42 08b4 5342
00000320: ecab 6142 08fd 6f42 dde3 6942 76af 4f42
00000330: c0b1 6a42 ba50 5a42 f242 2f42 2878 3942
00000340: 4caf 3e42 b670 5e42 b715 d041 94fe 3642
00000350: 2a61 f641 1cbf 2f42 20d8 6b42 a4d2 5c42
00000360: 898c 6a42 323a 5e42 4f95 3342 64fb 6442
00000370: 7222 5942 e859 5a42 886b 5242 04b8 3e42
00000380: f8cc 3042 862e 5442 3aba 3542 e4c6 2d42
00000390: ac5d 1742 637f 2c42 1eb8 4e42 06e4 2442
000003a0: 5272 3042 fa4c 3742 a13b 3342 aae7 4f42
000003b0: feb4 4142 46c7 4f42 7ae1 3a42 04d4 4142
000003c0: 2f1d 6742 dcbd 5e42 6024 5642 1356 5e42
000003d0: 0e85 3742 2ccf 4542 0adc 4c42 5cf7 4d42
000003e0: 5841 3c42 ce17 6242 479a 6d42 467f 6b42
000003f0: 9710 4d42 0201 3942 153f 6942 018c 5c42
