recordings/ayam/ayam_3f271b06-f3cd-4a51-b377-438557a0d37f_mfcc.npy (npy, 8604 bytes, 1 tensors)

array f4 [13, 163]
00000000: 6bfc 32c4 6bfc 32c4 6bfc 32c4 8e0b 14c4
00000010: efc1 10c4 b062 10c4 2fee 0bc4 a113 0dc4
00000020: 54d4 0bc4 6503 0cc4 ae88 0bc4 18d4 0bc4
00000030: 7da0 08c4 e9ec 09c4 40b3 0dc4 d768 0fc4
00000040: 6d6a 0bc4 a31c 0ec4 13e1 0fc4 910e 0fc4
00000050: 0e8f 0ec4 3b9a 0dc4 7e34 10c4 1f0d 13c4
00000060: cd17 16c4 fc0c 13c4 97b8 12c4 8b08 14c4
00000070: 6980 16c4 bcf4 16c4 b676 14c4 4e04 10c4
00000080: b890 10c4 22cf 10c4 eca7 11c4 f7c3 0dc4
00000090: 9581 11c4 e5b2 0dc4 9078 0ec4 a96c 09c4
000000a0: 0819 0ec4 6684 0dc4 89b7 0cc4 2806 11c4
000000b0: a5db 10c4 9768 0fc4 7c90 0ec4 410a 10c4
000000c0: 7297 12c4 7382 11c4 f515 14c4 ebeb 0fc4
000000d0: 1392 0fc4 e68e 11c4 30ae 12c4 bb1b 0fc4
000000e0: 762a 0dc4 840c 0ec4 9b7d 10c4 c03b 0cc4
000000f0: a863 0ac4 773a 0cc4 eeef 0bc4 b99a 0cc4
00000100: 44bf 09c4 3501 0ac4 7dbc 0bc4 fa99 0dc4
00000110: eca9 0cc4 08a3 0bc4 fdc6 0bc4 b818 0bc4
00000120: c5a6 0dc4 f37a 0dc4 940e 0dc4 a57e 0bc4
00000130: c967 0ac4 894b 0cc4 ce25 0fc4 ef0b 0fc4
00000140: d985 0ec4 ef8a 0cc4 77ef 0ac4 4d68 e7c3
00000150: a61d cbc3 0beb bac3 f35e a2c3 8a7b 9fc3
00000160: 859e a1c3 a441 a3c3 eeb4 9cc3 588d 9ec3
00000170: 62a7 94c3 191d 97c3 dfa9 9ec3 9fb8 a4c3
00000180: e0e5 a6c3 f72f aac3 daca adc3 5983 a9c3
00000190: 3bd4 a0c3 8c2b a0c3 a1f1 9fc3 7f7d a7c3
000001a0: 47fe abc3 45a8 b9c3 fd2f bac3 bc51 bec3
000001b0: eea4 bac3 3f64 bfc3 6ea5 b8c3 39b9 b8c3
000001c0: fef0 bac3 ee23 b8c3 c6fe 9ac3 81e7 8fc3
000001d0: 8351 87c3 00d2 8bc3 0a6d 83c3 5f69 75c3
000001e0: 574d 82c3 d362 82c3 ede9 84c3 5cfd 80c3
000001f0: 790f 87c3 3c93 86c3 0017 8ac3 a802 8ec3
00000200: d0f8 92c3 01fc 98c3 7d9d afc3 2e24 c0c3
00000210: f9a9 c3c3 20f9 c6c3 2e7d c9c3 66f3 ccc3
00000220: 5128 d3c3 3e1f d3c3 a425 d5c3 f334 dbc3
00000230: 53a2 dfc3 db14 e4c3 e7d1 ebc3 3653 efc3
00000240: 2cbe f3c3 97e8 f6c3 bef6 f3c3 cbac f7c3
00000250: 2859 f7c3 fb1a 00c4 a986 00c4 91ba 03c4
00000260: fb94 06c4 3425 07c4 e009 09c4 8d57 06c4
00000270: 9226 07c4 5d0a 0bc4 62bd 08c4 0fb6 0cc4
00000280: 69bc 0ac4 44bb 0bc4 fa12 13c4 0000 0000
00000290: 0000 0000 0000 0000 44db a342 9e52 5f42
000002a0: c004 8a42 2ff4 ad42 1e46 a142 10ab a042
000002b0: 3ce3 9c42 2600 9942 9cf4 9c42 da6e ad42
000002c0: ba0a a342 b67e a342 5244 9642 3cce a942
000002d0: 07bc a142 0a8e 9d42 e929 9942 ee62 9342
000002e0: 6152 9442 c600 9542 d061 5f42 0019 4642
000002f0: 38e8 6042 d8d2 6242 e215 6e42 bae6 4342
00000300: affd 4142 e01f 6b42 a214 8c42 2967 8842
00000310: 24a1 8442 7e5e 2e42 2efc a641 fe84 6442
00000320: 2233 9342 ac93 8f42 10df 4e42 360e 9142
00000330: 345c 4a42 4239 5d42 8fd3 6c42 444c 7742
00000340: ee10 8942 643c 8a42 6562 7a42 c817 5542
00000350: 1e21 7342 574e 5942 fda2 9442 4274 9042
00000360: d68f 8c42 800c 8942 335f 9a42 51a0 a042
00000370: 950e 9f42 423a 9542 1411 aa42 e7e0 9d42
00000380: 454a 9042 77d3 a042 429b 9642 32d7 9742
00000390: af3a 8742 c412 8942 6485 8142 0256 8242
000003a0: 7607 7342 9da4 8e42 8abb 9442 3aa8 8042
000003b0: 7b01 8142 0f9c 7a42 6e21 8a42 2ae1 9442
000003c0: f6fe 9742 d291 8542 ebe3 8e42 50cd 8b42
000003d0: 5acd 9e42 67a6 b842 dfb7 1143 2e97 2e43
000003e0: 82aa 4943 d27f 4d43 244e 5043 6c25 4b43
000003f0: b884 4d43 41c8 5143 62bd 4f43 e294 4743
-715.94403 -715.94403 -715.94403 -592.18054 -579.0302 -577.542 -559.7216 -564.3067
-559.3176 -560.05304 -558.1356 -559.31396 -546.5076 -551.7017 -566.8008 -573.6381
-557.6629 -568.44745 -575.5168 -572.2276 -570.2352 -566.40985 -576.8202 -588.205
-600.3719 -588.2029 -586.8842 -592.1335 -602.0064 -603.824 -593.85486 -576.06726
-578.2612 -579.23645 -582.6238 -567.06195 -582.0247 -566.7952 -569.8838 -549.6978
-568.3911 -566.0687 -562.86774 -580.0962 -579.43195 -573.6342 -570.25757 -576.1602
-586.36633 -582.03827 -592.3431 -575.6862 -574.2824 -582.2328 -586.7217 -572.4333
-564.66345 -568.19556 -577.9626 -560.9336 -553.5571 -560.9135 -559.7489 -562.41754
-550.9885 -552.01886 -558.9451 -566.4059 -562.655 -558.54736 -559.1092 -556.3862
-566.6058 -565.9211 -564.2278 -557.9788 -553.62164 -561.18024 -572.5907 -572.18646
-570.0914 -562.17084 -555.74164 -462.81485 -406.23163 -373.83627 -324.7418 -318.96515
-323.23843 -326.51282 -313.4135 -317.10425 -297.30768 -302.22733 -317.32712 -329.44235
-333.7959 -340.37473 -347.58478 -339.02615 -321.65805 -320.3402 -319.88773 -334.98044
-343.98654 -371.3146 -372.3749 -380.63855 -373.2885 -382.78317 -369.29242 -369.44705
-373.88275 -368.2807 -309.99042 -287.80862 -270.6368 -279.64062 -262.85187 -245.4116
-260.60422 -260.77206 -265.82755 -257.97937 -270.12088 -269.15027 -276.1797 -284.02075
-293.94385 -305.96878 -351.23038 -384.28265 -391.3279 -397.9463 -402.97797 -409.90155
-422.31497 -422.24408 -426.29407 -438.41367 -447.26816 -456.16293 -471.63986 -478.6501
-487.48572 -493.8171 -487.92767 -495.34995 -494.69653 -512.4216 -514.10406 -526.9151
-538.3278 -540.5813 -548.1543 -537.368 -540.60266 -556.1619 -546.9591 -562.84467
-554.9439 -558.926 -588.2965 0.0 0.0 0.0 81.92825 55.83068
69.00928 86.97692 80.63695 80.33411 78.44382 76.50029 78.47775 86.71651
81.52095 81.74748 75.13344 84.9028 80.86724 78.77742 76.581856 73.69322
74.1609 74.50151 55.84552 49.524414 56.226776 56.705902 59.52137 48.97532
48.497738 58.781128 70.0403 68.201485 66.31473 43.592278 20.873135 57.129875
73.59987 71.78842 51.717834 72.527756 50.590042 55.305916 59.2066 61.82448
68.533066 69.11795 62.59609 53.273224 60.78234 54.326504 74.31834 72.227066
70.28093 68.524414 77.185936 80.31312 79.52848 74.613785 85.033356 78.93926
72.14506 80.41302 75.30324 75.9203 67.61462 68.53665 64.76053 65.167984
60.757286 71.32151 74.36629 64.32857 64.50289 62.6524 69.06529 74.43977
75.99797 66.784805 71.44515 69.901 79.40108 92.325005 145.71825 174.59055
201.66605 205.4993 208.30524 203.14618 205.51843 209.78224 207.73978 199.58157
