recordings/ayam/ayam_5777509d-e916-4f26-9cd6-b4332a790b38_mfcc.npy (npy, 9020 bytes, 1 tensors)

array f4 [13, 171]
-678.55707 -678.55707 -678.55707 -572.83453 -529.05664 -522.05035 -481.44208 -504.0115
-509.22372 -520.95215 -517.37897 -533.44507 -541.60516 -543.99414 -568.2992 -566.3033
-563.5649 -568.36536 -563.68665 -570.1993 -580.764 -568.06744 -563.4837 -574.79285
-582.76483 -574.64 -575.2875 -572.65845 -574.25275 -562.56323 -559.2888 -551.18463
-561.3791 -555.82745 -549.1858 -552.3177 -558.3367 -553.811 -564.80963 -566.1772
-568.977 -568.20154 -561.29407 -574.58307 -564.1274 -559.338 -556.4421 -548.0887
-549.4169 -540.08234 -549.8752 -540.8133 -536.2182 -528.5106 -531.72876 -549.86865
-552.30835 -538.98663 -540.7444 -536.15704 -525.4824 -511.8418 -511.68353 -512.88806
-517.31537 -526.226 -522.557 -532.5934 -528.0598 -536.0935 -537.43256 -521.44275
-520.4406 -516.60004 -530.76245 -533.1297 -535.0596 -497.91873 -448.3374 -477.70456
-429.39343 -344.91986 -329.11902 -310.5116 -304.2022 -299.62906 -295.82037 -296.56253
-295.56567 -297.18494 -304.46274 -303.96045 -310.8086 -309.9865 -310.6761 -310.4264
-310.51923 -318.6292 -331.0411 -328.32208 -324.84897 -348.31784 -357.7058 -364.08948
-377.27664 -373.48523 -371.58585 -357.03455 -346.6721 -309.3278 -281.24332 -257.5732
-250.04494 -243.88164 -235.64859 -236.36836 -242.55383 -244.47755 -246.87099 -262.38876
-276.00302 -302.0863 -357.79465 -373.92453 -369.50278 -369.8609 -381.4465 -395.19662
-405.1859 -404.3681 -406.16595 -415.556 -433.0172 -438.7173 -442.4102 -456.95947
-455.30072 -468.2182 -476.95984 -469.08203 -471.33008 -483.8131 -498.1342 -492.19214
-495.06226 -498.56796 -502.8261 -500.6394 -507.46036 -495.35733 -497.75803 -499.40012
-512.23047 -519.1991 -529.7941 -531.6169 -527.6097 -523.1097 -515.7799 -510.6004
-496.63733 -503.74615 -510.90082 -511.2756 -510.15445 -511.095 -515.3367 -519.77795
-518.0444 -519.9341 -531.78253 0.0 0.0 0.0 64.50734 68.943054
64.55856 12.00433 47.3802 67.62723 69.950165 70.67839 51.50034 59.69774
66.719055 52.788795 52.51232 58.26911 48.464203 57.460987 49.85824 43.714516
58.40379 58.731323 49.228333 56.982105 55.61216 57.8799 69.02164 68.32953
68.09697 62.30977 67.39969 58.475525 62.74106 64.66194 52.86579 54.18666
59.486237 57.64775 66.9849 59.341827 66.05204 64.51902 57.004463 61.16608
64.30425 68.274765 76.96538 75.3654 68.473175 56.527916 69.63055 69.11424
77.18313 72.71062 62.245655 54.595985 58.716797 56.49804 54.220585 51.767864
58.04065 64.02439 64.21547 62.922623 61.822327 66.4075 61.01361 70.80091
65.77031 64.61447 73.178665 82.627304 76.342926 62.499954 73.66458 79.78775
97.19113 117.33208 100.89955 129.13365 188.93735 202.01357 207.41785 209.02322
00000000: a7a3 29c4 a7a3 29c4 a7a3 29c4 6935 0fc4
00000010: a043 04c4 3983 02c4 96b8 f0c3 7901 fcc3
00000020: a39c fec3 f03c 02c4 4158 01c4 7c5c 05c4
00000030: bb66 07c4 a0ff 07c4 2613 0ec4 6993 0dc4
00000040: 27e4 0cc4 6217 0ec4 f2eb 0cc4 c18c 0ec4
00000050: e530 11c4 5104 0ec4 f5de 0cc4 beb2 0fc4
00000060: f3b0 11c4 f6a8 0fc4 66d2 0fc4 242a 0fc4
00000070: 2d90 0fc4 0ca4 0cc4 7cd2 0bc4 d1cb 09c4
00000080: 4358 0cc4 f5f4 0ac4 e44b 09c4 5514 0ac4
00000090: 8c95 0bc4 e773 0ac4 d133 0dc4 578b 0dc4
000000a0: 873e 0ec4 e60c 0ec4 d252 0cc4 51a5 0fc4
000000b0: 2708 0dc4 a2d5 0bc4 4b1c 0bc4 ad05 09c4
000000c0: ae5a 09c4 4505 07c4 0378 09c4 0d34 07c4
000000d0: f70d 06c4 ae20 04c4 a4ee 04c4 9877 09c4
000000e0: bc13 0ac4 25bf 06c4 a42f 07c4 0d0a 06c4
000000f0: e05e 03c4 c0eb ffc3 7ed7 ffc3 d638 00c4
00000100: 2f54 01c4 778e 03c4 a6a3 02c4 fa25 05c4
00000110: d403 04c4 fc05 06c4 af5b 06c4 565c 02c4
00000120: 331c 02c4 6726 01c4 ccb0 04c4 4d48 05c4
00000130: d0c3 05c4 99f5 f8c3 302b e0c3 2fda eec3
00000140: 5cb2 d6c3 be75 acc3 3c8f a4c3 7c41 9bc3
00000150: e219 98c3 85d0 95c3 02e9 93c3 0148 94c3
00000160: 68c8 93c3 ac97 94c3 3b3b 98c3 f0fa 97c3
00000170: 8067 9bc3 46fe 9ac3 8a56 9bc3 9436 9bc3
00000180: 7642 9bc3 8a50 9fc3 4385 a5c3 3a29 a4c3
00000190: ab6c a2c3 af28 aec3 58da b2c3 740b b6c3
000001a0: 69a3 bcc3 1cbe bac3 fdca b9c3 6c84 b2c3
000001b0: 0756 adc3 f5a9 9ac3 259f 8cc3 5fc9 80c3
000001c0: 810b 7ac3 b3e1 73c3 0aa6 6bc3 4d5e 6cc3
000001d0: c88d 72c3 417a 74c3 f9de 76c3 c331 83c3
000001e0: 6300 8ac3 0c0b 97c3 b7e5 b2c3 57f6 bac3
000001f0: 5bc0 b8c3 32ee b8c3 27b9 bec3 2b99 c5c3
00000200: cc97 cac3 1e2f cac3 3e15 cbc3 2bc7 cfc3
00000210: 3482 d8c3 d05b dbc3 8134 ddc3 d07a e4c3
00000220: 7ea6 e3c3 ee1b eac3 dc7a eec3 808a eac3
00000230: 40aa ebc3 14e8 f1c3 2d11 f9c3 9818 f6c3
00000240: f887 f7c3 b348 f9c3 be69 fbc3 d851 fac3
00000250: edba fdc3 bdad f7c3 07e1 f8c3 37b3 f9c3
00000260: c00e 00c4 becc 01c4 d372 04c4 7be7 04c4
00000270: 05e7 03c4 05c7 02c4 eaf1 00c4 da4c ffc3
00000280: 9451 f8c3 82df fbc3 4e73 ffc3 47a3 ffc3
00000290: c513 ffc3 298c ffc3 8cd5 00c4 caf1 01c4
000002a0: d782 01c4 c8fb 01c4 15f2 04c4 0000 0000
000002b0: 0000 0000 0000 0000 c203 8142 d8e2 8942
000002c0: fc1d 8142 bc11 4041 5385 3d42 2441 8742
000002d0: 7ce6 8b42 565b 8d42 5900 4e42 7cca 6e42
000002e0: 2870 8542 ba27 5342 9e0c 5242 9213 6942
000002f0: 58db 4142 0dd8 6542 d66e 4742 aadb 2e42
00000300: 7b9d 6942 e0ec 6a42 d0e9 4442 aded 6342
00000310: da72 5e42 0585 6742 140b 8a42 b8a8 8842
00000320: a631 8842 343d 7942 a4cc 8642 f0e6 6942
00000330: d8f6 7a42 ea52 8142 9276 5342 24bf 5842
00000340: e8f1 6d42 4c97 6642 45f8 8542 085e 6d42
00000350: a51a 8442 bd09 8142 9204 6442 11aa 7442
00000360: c79b 8042 ae8c 8842 46ee 9942 16bb 9642
00000370: 44f2 8842 961c 6242 d742 8b42 7e3a 8a42
00000380: c35d 9a42 d66b 9142 8dfb 7842 4a62 5a42
00000390: 00de 6a42 fefd 6142 e1e1 5842 4b12 4f42
000003a0: a029 6842 7d0c 8042 526e 8042 c4b0 7b42
000003b0: 104a 7742 a4d0 8442 f00d 7442 119a 8d42
000003c0: 668a 8342 9c3a 8142 7a5b 9242 2e41 a542
000003d0: 94af 9842 f4ff 7942 4454 9342 5493 9f42
000003e0: dc61 c242 06aa ea42 92cc c942 3722 0143
000003f0: f6ef 3c43 7903 4a43 f86a 4f43 f205 5143
