recordings/ayam/ayam_2807c178-5070-49da-b541-b7e45f527149_mfcc.npy (npy, 10372 bytes, 1 tensors)

array f4 [13, 197]
000000 b1 e3 2d c4 b1 e3 2d c4 b1 e3 2d c4 80 1d 1f c4
       -695.5577 -695.5577 -695.5577 -636.46094
000010 3e 69 15 c4 ba 56 13 c4 92 ae 11 c4 8e 9a 10 c4
       -597.6444 -589.3551 -582.72766 -578.4149
000020 0e d9 0c c4 37 b0 0e c4 16 0e 0e c4 c2 88 0e c4
       -563.3915 -570.75336 -568.2201 -570.13684
000030 d5 fb 0c c4 f3 99 0e c4 54 6a 11 c4 a3 cf 12 c4
       -563.9349 -570.40546 -581.6614 -587.2443
000040 ed 4e 15 c4 5b d3 12 c4 15 8f 13 c4 6a c0 15 c4
       -597.2332 -587.3024 -590.23566 -599.0065
000050 ee d9 14 c4 7f a2 15 c4 d2 cf 13 c4 d1 9f 12 c4
       -595.40515 -598.539 -591.2472 -586.49713
000060 1c bc 11 c4 99 5f 14 c4 85 a8 12 c4 9f 98 14 c4
       -582.9392 -593.4937 -586.6331 -594.3847
000070 32 a6 14 c4 8c 36 12 c4 99 d5 13 c4 24 36 13 c4
       -594.5968 -584.8523 -591.33746 -588.84595
000080 8d 17 12 c4 65 00 10 c4 ac b6 10 c4 29 3a 0f c4
       -584.368 -576.00616 -578.85425 -572.90875
000090 f4 5d 11 c4 b9 a4 14 c4 0a e8 15 c4 92 90 13 c4
       -581.468 -594.5738 -599.6256 -590.2589
0000a0 77 32 16 c4 fa a7 12 c4 34 90 13 c4 5d 10 10 c4
       -600.7885 -586.62463 -590.2532 -576.2557
0000b0 79 7c 10 c4 cd 4d 12 c4 27 84 0d c4 55 19 0f c4
       -577.9449 -585.21564 -566.0649 -572.3958
0000c0 3a 0c 10 c4 46 4e 0f c4 06 04 12 c4 17 f4 12 c4
       -576.19104 -573.223 -584.06287 -587.8139
0000d0 05 4e 10 c4 0e e0 0e c4 76 0f 0f c4 06 dd 0e c4
       -577.21906 -571.50085 -572.2416 -571.4535
0000e0 55 88 10 c4 88 64 12 c4 55 c7 14 c4 a2 03 15 c4
       -578.1302 -585.5708 -595.11456 -596.05676
0000f0 f4 3c 17 c4 82 c8 12 c4 f2 8a 10 c4 e6 19 10 c4
       -604.9524 -587.13293 -578.171 -576.40466
000100 dd 77 0f c4 46 a4 0e c4 1c af 0e c4 a7 d3 0d c4
       -573.87286 -570.5668 -570.7361 -567.30707
000110 56 01 11 c4 4b 01 12 c4 5f 6d 11 c4 b9 fa 0e c4
       -580.0209 -584.0202 -581.7089 -571.91754
000120 19 ca 0b c4 f8 8d 0d c4 56 f9 0c c4 fe 9f 0d c4
       -559.1578 -566.21826 -563.8959 -566.4999
000130 ff 5b 0f c4 4f 43 0f c4 b0 fc 0e c4 21 5f 10 c4
       -573.43744 -573.0517 -571.94824 -577.4864
000140 f1 cd 0f c4 2b 11 0d c4 a7 b6 09 c4 0c 36 0a c4
       -575.21783 -564.26825 -550.85394 -552.8445
000150 1c 44 0d c4 6a d2 0c c4 e9 56 0c c4 49 9c 09 c4
       -565.0642 -563.2877 -561.358 -550.44196
000160 61 17 0a c4 ef cd 0b c4 0d ef 09 c4 3b 6c 09 c4
       -552.3653 -559.2177 -551.73517 -549.6911
000170 e8 ed 08 c4 e7 f7 0a c4 84 7c 0a c4 1e 1f 0c c4
       -547.7173 -555.8735 -553.94556 -560.4862
000180 a8 fb 0a c4 91 7d 07 c4 b8 79 07 c4 42 c6 09 c4
       -555.9321 -541.962 -541.90186 -551.0978
000190 14 99 0a c4 11 73 08 c4 d8 fa 07 c4 b9 6e 0a c4
       -554.39185 -545.7979 -543.91943 -553.73004
0001a0 71 75 0a c4 ff 11 00 c4 45 ad d5 c3 bd 48 be c3
       -553.835 -512.2812 -427.35367 -380.56827
0001b0 46 cb ba c3 ab a7 ba c3 1c 05 b0 c3 8e d2 a9 c3
       -373.58807 -373.3099 -352.03992 -339.64496
0001c0 8f f5 a3 c3 44 83 a1 c3 2d 66 a0 c3 71 34 a2 c3
       -327.91843 -323.0255 -320.79825 -324.4097
0001d0 de 69 a5 c3 41 24 ad c3 cb 01 ac c3 17 c5 aa c3
       -330.8271 -346.28323 -344.014 -341.53976
0001e0 70 3c a4 c3 c7 e0 a1 c3 67 07 a0 c3 8c 96 a0 c3
       -328.47217 -323.75607 -320.05783 -321.17615
0001f0 c9 42 ab c3 9c b3 ad c3 56 47 ab c3 44 69 af c3
       -342.52176 -347.4032 -342.5573 -350.8224
000200 e6 82 b6 c3 3d a7 be c3 1b a3 c0 c3 14 5d c7 c3
       -365.02264 -381.30655 -385.27426 -398.72717
000210 be ec cb c3 fd 68 c7 c3 ee fc bb c3 b0 7c 9b c3
       -407.84955 -398.82022 -375.976 -310.97412
000220 48 3b 97 c3 26 b9 89 c3 e4 37 82 c3 93 4b 78 c3
       -302.46313 -275.44647 -260.43665 -248.29521
000230 1b 78 77 c3 0b 54 6c c3 b1 aa 69 c3 ea 27 68 c3
       -247.46916 -236.3283 -233.66676 -232.15591
000240 1d 9f 6f c3 b0 2d 78 c3 6e 03 80 c3 fe 81 8b c3
       -239.62154 -248.17847 -256.0268 -279.01556
000250 b1 c9 91 c3 e4 48 9f c3 b5 c2 b3 c3 51 21 bb c3
       -291.5757 -318.56946 -359.52115 -374.26028
000260 4c 94 c4 c3 19 98 c6 c3 c0 39 ca c3 fe c4 cd c3
       -393.15857 -397.18826 -404.45117 -411.539
000270 c7 53 d4 c3 45 d0 da c3 de c4 e1 c3 f4 eb e3 c3
       -424.6545 -437.6271 -451.53802 -455.84338
000280 8e 05 e6 c3 b3 01 ec c3 27 4f f2 c3 6c 26 f2 c3
       -460.0434 -472.01328 -484.61838 -484.30017
000290 f0 e0 ef c3 2e da f3 c3 39 e9 f4 c3 56 90 fb c3
       -479.75732 -487.70453 -489.82205 -503.12762
0002a0 ea 83 f8 c3 d0 e7 fa c3 5c be ff c3 5e 70 01 c4
       -497.03058 -501.81104 -511.48718 -517.75574
0002b0 1b 6a 02 c4 a8 e6 02 c4 df ec 03 c4 c9 55 06 c4
       -521.6579 -523.604 -527.7011 -537.3404
0002c0 71 df 05 c4 3c 25 05 c4 39 49 04 c4 10 82 04 c4
       -535.4913 -532.5818 -529.1441 -530.0322
0002d0 02 72 06 c4 b8 31 0a c4 bf 61 0c c4 7c 15 0e c4
       -537.7814 -552.77686 -561.5273 -568.3357
0002e0 9a d9 0a c4 89 c1 09 c4 27 ca 09 c4 26 04 0b c4
       -555.4 -551.024 -551.1586 -556.0648
0002f0 4c 77 0d c4 3e 0d 0c c4 9d 91 0b c4 78 7b 0e c4
       -565.864 -560.2069 -558.2752 -569.9292
000300 c0 86 0f c4 37 b7 10 c4 fe fc 0f c4 7d 4d 0f c4
       -574.10547 -578.86273 -575.953 -573.21075
000310 6e 69 0f c4 00 00 00 00 00 00 00 00 00 00 00 00
       -573.64734 0.0 0.0 0.0
000320 12 55 32 42 b8 a9 4c 42 c4 5f 7b 42 ed 81 85 42
       44.583076 51.16574 62.84352 66.75376
000330 db f8 86 42 ea 8e 91 42 d4 4b 8a 42 8e f6 8a 42
       67.486046 72.77913 69.1481 69.48155
000340 c7 c2 8c 42 7c e6 87 42 2f 40 92 42 2d 96 76 42
       70.380424 67.950165 73.12536 61.646656
000350 55 51 78 42 bb 76 4e 42 9c 33 55 42 18 20 66 42
       62.079426 51.615948 53.3004 57.53134
000360 b2 b5 3e 42 5a c7 3d 42 da f7 5b 42 14 15 72 42
       47.677437 47.44468 54.992043 60.520584
000370 ab be 65 42 38 fd 81 42 ba 95 59 42 88 b9 5b 42
       57.4362 64.99457 54.396217 54.931183
000380 04 ce 5c 42 7e 14 5e 42 5e a0 7f 42 26 2c 7e 42
       55.201187 55.52001 63.90661 63.543114
000390 eb 6f 7c 42 45 ce 83 42 72 76 83 42 44 bb 64 42
       63.109295 65.90287 65.73134 57.182877
0003a0 f6 7f 6f 42 8a 2e 4b 42 f2 32 26 42 0e 9e 47 42
       59.87496 50.79545 41.54975 49.90435
0003b0 aa 9a 4b 42 b8 3f 32 42 32 8d 50 42 60 79 56 42
       50.90104 44.562225 52.137886 53.61853
0003c0 40 a0 7e 42 d9 0b 6f 42 8a c0 67 42 55 55 81 42
       63.656494 59.76157 57.938026 64.666664
0003d0 a0 3d 6b 42 94 3c 5a 42 06 c5 63 42 40 9f 52 42
       58.81018 54.55916 56.942406 52.655518
0003e0 26 3e 25 42 d0 87 3d 42 6e 4e 69 42 32 23 6e 42
       41.31069 47.38263 58.32659 59.53437
0003f0 13 f0 5c 42 7c e6 5b 42 4b 9d 4c 42 6a 1b 4a 42
       55.234447 54.975082 51.153606 50.52677
