recordings/ayam/ayam_b3638e01-4b98-40aa-b622-a80792fede3e_mfcc.npy (npy, 4132 bytes, 1 tensors)

array (column-major) f4 [77, 13]
0	0xc42d6b07	-693.6723
1	0xc42b0579	-684.0855
2	0xc3eaaa91	-469.33255
3	0xc3d81bde	-432.2177
4	0xc409a76f	-550.61615
5	0xc3df42e0	-446.52246
6	0xc3da1f5f	-436.2451
7	0xc3d948b1	-434.5679
8	0xc3dbb5ed	-439.4213
9	0xc3db893a	-439.07208
10	0xc3dfe47f	-447.78513
11	0xc3dd900a	-443.1253
12	0xc3db2928	-438.32153
13	0xc3dfc1e5	-447.5148
14	0xc3df5524	-446.66516
15	0xc3dfff9a	-447.9969
16	0xc3e45635	-456.6735
17	0xc3e0d461	-449.6592
18	0xc3dd9d78	-443.23022
19	0xc3e0ad6a	-449.3548
20	0xc3e49647	-457.17404
21	0xc3e1396a	-450.44855
22	0xc3e1df42	-451.7442
23	0xc3e630ac	-460.38025
24	0xc3e08bce	-449.09222
25	0xc3f7a27a	-495.26935
26	0xc3d94606	-434.54706
27	0xc3d265d5	-420.79556
28	0xc3ce6d04	-412.85168
29	0xc3ccb198	-409.38745
30	0xc3c48abb	-393.08383
31	0xc3bd49ae	-378.57562
32	0xc3ad24ea	-346.2884
33	0xc39da975	-315.32388
34	0xc39ac367	-309.52658
35	0xc396f36c	-301.90173
36	0xc397e400	-303.78125
37	0xc39d3250	-314.39307
38	0xc39eccfe	-317.6015
39	0xc3a7639b	-334.77817
40	0xc3ae4b2f	-348.58737
41	0xc3b5cd51	-363.60403
42	0xc3c3b388	-391.4026
43	0xc3c68b5d	-397.08878
44	0xc3c7ae38	-399.36108
45	0xc3caec91	-405.84818
46	0xc3bc315f	-376.3857
47	0xc3a0286e	-320.31586
48	0xc392d845	-293.6896
49	0xc3866ee0	-268.8662
50	0xc38046c2	-256.5528
51	0xc380cba0	-257.59082
52	0xc382665a	-260.79962
53	0xc385b115	-267.38345
54	0xc385a212	-267.26617
55	0xc3842f11	-264.3677
56	0xc388590b	-272.69565
57	0xc38f070e	-286.0551
58	0xc397e636	-303.79852
59	0xc3ac2f83	-344.3712
60	0xc3bdec5a	-379.8465
61	0xc3ca8049	-405.00223
62	0xc3d82dd2	-432.35797
63	0xc3dce15e	-441.76068
64	0xc3e1a342	-451.27545
65	0xc3ea113e	-468.1347
66	0xc3f03e76	-480.48798
67	0xc3e5b785	-459.43375
68	0xc3dd610a	-442.75812
69	0xc3d60b1b	-428.08676
70	0xc3d2195c	-420.19812
71	0xc3d51d5d	-426.2294
72	0xc3d926f0	-434.3042
73	0xc3d11283	-418.14462
74	0xc3c97d9b	-402.9813
75	0xc3c628ef	-396.3198
76	0xc3bf3b62	-382.46393
77	0x00000000	0.0
78	0x412ce7af	10.806563
79	0x42ac7228	86.22296
80	0x42e412e3	114.03689
81	0x42c0f6e1	96.482185
82	0x42dd81f8	110.753845
83	0x42e29094	113.28238
84	0x42f372dc	121.724335
85	0x42c5c6c6	98.88823
86	0x42c8ed7f	100.46386
87	0x42c15fd3	96.68716
88	0x42cd3eb0	102.62244
89	0x42c6c0e1	99.37672
90	0x42c0f8d4	96.48599
91	0x42d4cdf5	106.40226
92	0x42d5f21e	106.972885
93	0x42dd4182	110.627945
94	0x42ee7f03	119.24807
95	0x42f31422	121.53932
96	0x42ee34d6	119.103195
97	0x42e21248	113.035706
98	0x42ea0db0	117.02673
99	0x42d577dc	106.7341
100	0x42d803e2	108.00758
101	0x42f2acfe	121.337875
102	0x42ed61bc	118.69089
103	0x42ed75d4	118.73013
104	0x42f58ea0	122.778564
105	0x42ffa501	127.82227
106	0x42ec1ffb	118.06246
107	0x4301432c	129.26239
108	0x43080bd2	136.04617
109	0x4307ed92	135.92801
110	0x4324844e	164.51682
111	0x43258ae1	165.5425
112	0x4337c5e7	183.77306
113	0x4333e822	179.90677
114	0x4337ad75	183.67757
115	0x43259ee7	165.62071
116	0x431255aa	146.33463
117	0x430d8c02	141.5469
118	0x43075090	135.3147
119	0x42f86a00	124.20703
120	0x42ef4d04	119.65042
121	0x42f25434	121.16446
122	0x42ef95d6	119.79265
123	0x43137262	147.44681
124	0x432bacd6	171.67514
125	0x43277101	167.44142
126	0x432662e8	166.38635
127	0x432c296b	172.16179
128	0x43261842	166.09476
129	0x43267af6	166.48032
130	0x43268f90	166.56079
131	0x432e650f	174.39476
132	0x432b5def	171.36693
133	0x4328d629	168.83656
134	0x433253f6	178.32797
135	0x43307f5c	176.4975
136	0x432ccc24	172.79742
137	0x431c3a08	156.22668
138	0x430fc8ce	143.7844
139	0x430b34c0	139.20605
140	0x4303f200	131.94531
141	0x42f23b8f	121.116325
142	0x42e74d2e	115.65074
143	0x42dcdb76	110.428635
144	0x4302d1f7	130.82018
145	0x430f870a	143.5275
146	0x4320c56e	160.77121
147	0x432440ab	164.25261
148	0x43231b5a	163.10684
149	0x431c4d54	156.30206
150	0x431eec1d	158.92232
151	0x4319da9c	153.85394
152	0x431b691a	155.41055
153	0x43239b23	163.606
154	0x00000000	0.0
155	0x4076be22	3.8553548
156	0xc0b8697d	-5.762877
157	0x40a32b84	5.099062
158	0xc08b2c3c	-4.3491497
159	0x41c1ec02	24.240238
160	0x42005b79	32.08933
161	0x421d2fa0	39.29651
162	0x418a67ce	17.300686
163	0x4139ce4e	11.612867
164	0x414a7ad6	12.654989
165	0x41544252	13.2661915
166	0x417b719e	15.715239
167	0x412edf1a	10.929468
168	0x41a89d3c	21.076775
169	0x4151e912	13.119402
170	0x4196fb39	18.872667
171	0x41e6b166	28.83662
172	0x41b42778	22.519272
173	0x41dfcab2	27.973972
174	0x41dd4db3	27.66294
175	0x4181964d	16.19839
176	0x4118e5ed	9.556134
177	0x418fad8e	17.959743
178	0x41925ab6	18.294292
179	0x413eab2e	11.916792
180	0x40aa0c41	5.313996
181	0xc063cd00	-3.5593872
182	0xc1613dc2	-14.077578
183	0xc1c4511c	-24.539604
184	0xc1f497e6	-30.57417
185	0xc20c41ea	-35.06437
186	0xc22c1362	-43.01893
187	0xc24a798b	-50.618694
188	0xc208b140	-34.173096
189	0xc1c4544e	-24.541164
190	0xc192d212	-18.352573
191	0x408730ae	4.2246923
192	0x414b73e3	12.715793
193	0x41b45efc	22.54638
194	0x41d5c5d0	26.721588
195	0x41d3f054	26.492348
196	0x42000d45	32.01296
197	0x41f9d8de	31.230892
198	0x42098b5e	34.3861
199	0x41a3d269	20.47774
200	0x41d49078	26.570541
201	0x41cfb667	25.964064
202	0x4169a78b	14.603404
203	0xc0b12fa8	-5.5370674
204	0xc0faf972	-7.84295
205	0xc193ae72	-18.460178
206	0xc1caabe6	-25.333935
207	0xc215d69f	-37.45959
208	0xc21e3b82	-39.558113
209	0xc1dc20da	-27.51604
210	0xc12abe7a	-10.671503
211	0xc0cc889c	-6.391676
212	0xbfc2790b	-1.5193189
213	0x40bb2c6c	5.8491726
214	0x4148c546	12.548162
215	0x419b4d46	19.412731
216	0x41a822fa	21.017078
217	0x41d926cb	27.143942
218	0x41ec3854	29.527504
219	0x41f548c5	30.660532
220	0x41c7d7b5	24.980326
221	0x41d0ec57	26.1154
222	0x4206ad77	33.6694
223	0x420f0789	35.75736
224	0x4207e65c	33.97496
225	0x4206d214	33.705154
226	0x41a0de47	20.108534
227	0xc0c808d5	-6.251078
228	0xc1cdca80	-25.723877
229	0xc1f1d696	-30.229778
230	0xc161a0ac	-14.101727
231	0x00000000	0.0
232	0xc0826df4	-4.075922
233	0xc0aff032	-5.4980707
234	0xc0c81528	-6.2525826
235	0xc196a66d	-18.831263
236	0x3ff55b93	1.9168571
237	0x3fea27aa	1.8293355
238	0xc101da63	-8.115817
239	0xc1997e44	-19.186653
240	0xc165c3c4	-14.360294
241	0xc1979ac6	-18.950573
242	0xc117df00	-9.491943
243	0x3dc3520c	0.095371336
244	0x3ff46e7f	1.9096221
245	0xbf1f0734	-0.62120366
246	0xc0c6067f	-6.188293
247	0xc091f996	-4.561717
248	0xc013cc62	-2.3093495
249	0xc09f8be6	-4.9858274
250	0xc0e55918	-7.1671257
251	0xc0585145	-3.3799603
252	0xc11dfc30	-9.874069
253	0xbf8afd3a	-1.0858529
254	0x3f9589ec	1.1682715
255	0x40f1dd1a	7.55824
