recordings/ayam/ayam_1c56ffa4-337f-43d2-b01c-cc0491bd8027_mfcc.npy (npy, 9488 bytes, 1 tensors)

array f4 [13, 180]
000000 9e fd 33 c4 9e fd 33 c4 9e fd 33 c4 20 05 1a c4
       -719.96277 -719.96277 -719.96277 -616.0801
000010 ec 83 15 c4 4e de 13 c4 79 bc 12 c4 ab ca 13 c4
       -598.0613 -591.4735 -586.9449 -591.1667
000020 1e bb 11 c4 f1 f4 12 c4 48 2b 13 c4 8a 8e 13 c4
       -582.9237 -587.8272 -588.6763 -590.2272
000030 14 1d 0f c4 b1 b2 0e c4 60 ea 11 c4 b3 74 10 c4
       -572.45435 -570.79205 -583.6621 -577.8234
000040 51 ca 0d c4 86 d4 0d c4 55 2a 10 c4 6f 58 10 c4
       -567.1612 -567.3207 -576.66144 -577.3818
000050 78 b0 11 c4 34 e5 13 c4 3b ea 15 c4 58 cf 15 c4
       -582.7573 -591.5813 -599.65985 -599.23975
000060 4a b6 15 c4 10 a4 13 c4 19 b5 13 c4 29 98 11 c4
       -598.84827 -590.5635 -590.82965 -582.3775
000070 92 6f 11 c4 b6 56 12 c4 72 0a 11 c4 bf 98 0e c4
       -581.7433 -585.35486 -580.1632 -570.38666
000080 5a 69 11 c4 74 56 0f c4 b2 34 0f c4 76 cc 0f c4
       -581.6461 -573.3508 -572.82336 -575.1947
000090 a6 b2 0e c4 14 65 0e c4 da 4b 0d c4 8e 84 0e c4
       -570.7914 -569.57935 -565.1852 -570.07117
0000a0 1c 7b 0c c4 13 f2 0c c4 cf 58 07 c4 9a 93 07 c4
       -561.9236 -563.7824 -541.38763 -542.3063
0000b0 1a 3e 0d c4 7e ea 0d c4 63 9a 0a c4 42 2d 0c c4
       -564.97034 -567.66394 -554.4123 -560.70715
0000c0 a7 2d 0c c4 bf 5c 0d c4 f1 41 0e c4 9c 8f 0e c4
       -560.7133 -565.44916 -569.03033 -570.2439
0000d0 e3 cf 02 c4 ee 7c 02 c4 cc f0 06 c4 d4 b7 03 c4
       -523.2482 -521.952 -539.76245 -526.8723
0000e0 b7 dc 03 c4 32 65 04 c4 b8 78 09 c4 75 e1 08 c4
       -527.44867 -529.5812 -549.8862 -547.52277
0000f0 cc 7b 0a c4 aa 12 0c c4 2a 39 0f c4 70 88 0e c4
       -553.9343 -560.2916 -572.8932 -570.13184
000100 db 30 10 c4 53 89 11 c4 33 7c 0e c4 84 12 0e c4
       -576.76337 -582.1457 -569.9406 -568.2893
000110 f5 85 0d c4 d2 cd 10 c4 87 77 0f c4 40 66 11 c4
       -566.0931 -579.21594 -573.8676 -581.59766
000120 99 09 11 c4 7a d7 12 c4 86 53 14 c4 af e8 11 c4
       -580.14996 -587.3668 -593.30505 -583.6357
000130 0f 93 0d c4 0a c3 0d c4 f5 be 0e c4 29 d8 0d c4
       -566.2978 -567.0475 -570.9837 -567.3775
000140 cd db 0c c4 38 35 0c c4 43 4a 0d c4 31 3c 10 c4
       -563.4344 -560.83154 -565.16034 -576.9405
000150 0b 60 11 c4 b5 fe 0c c4 80 e1 0b c4 96 60 0c c4
       -581.5007 -563.9798 -559.52344 -561.50916
000160 e1 b8 0f c4 84 b4 10 c4 5a a4 0f c4 0d d2 10 c4
       -574.88873 -578.82056 -574.568 -579.28204
000170 31 95 11 c4 0d 63 11 c4 13 85 13 c4 8e 85 0f c4
       -582.3311 -581.54767 -590.0793 -574.0868
000180 59 26 0e c4 e1 40 e2 c3 9d 3a d0 c3 17 ef c4 c3
       -568.5992 -452.50687 -416.45792 -393.8679
000190 0e db b3 c3 9b 9c ad c3 79 c9 a7 c3 00 13 a6 c3
       -359.71136 -347.22348 -335.574 -332.14844
0001a0 7d c8 a5 c3 2d f3 a6 c3 a5 23 a3 c3 80 9d 9e c3
       -331.5663 -333.8998 -326.27847 -317.23047
0001b0 22 a2 a3 c3 7e 21 ab c3 72 c0 ab c3 ce 74 a7 c3
       -327.26666 -342.26166 -343.50348 -334.91254
0001c0 21 aa 9b c3 91 cd a7 c3 b4 d4 af c3 f7 12 b1 c3
       -311.32913 -335.606 -351.66174 -354.14816
0001d0 3a f0 b0 c3 1e 44 b2 c3 d6 a8 b3 c3 64 b3 b8 c3
       -353.87677 -356.53217 -359.31903 -369.4015
0001e0 2e f5 bd c3 9a 1f ba c3 30 4c c1 c3 a0 25 c5 c3
       -379.91547 -372.2469 -386.5952 -394.29395
0001f0 7f d2 c7 c3 92 29 cd c3 d3 51 cb c3 a8 fb c3 c3
       -399.6445 -410.32477 -406.63925 -391.96606
000200 d3 15 c5 c3 37 08 ba c3 7b 84 ab c3 b5 37 9e c3
       -394.1705 -372.06418 -343.035 -316.4352
000210 97 5f 99 c3 d8 3b 90 c3 bd cf 8a c3 f4 ad 8a c3
       -306.7468 -288.46753 -277.62296 -277.359
000220 da 9b 8d c3 92 0a 8f c3 d0 40 8f c3 66 b2 93 c3
       -283.2176 -286.08258 -286.50635 -295.39374
000230 37 c6 91 c3 25 99 97 c3 a8 c9 98 c3 e0 47 96 c3
       -291.54855 -303.19644 -305.57544 -300.56152
000240 1a c7 9e c3 55 0f b1 c3 91 ec c0 c3 af 4a c9 c3
       -317.55548 -354.11978 -385.84818 -402.58347
000250 8e 8f ca c3 af d8 cc c3 0e ae d1 c3 d9 dc db c3
       -405.12152 -409.69284 -419.3598 -439.72537
000260 5a d2 df c3 9c 5d e7 c3 42 f9 e8 c3 9c 7f ec c3
       -447.64337 -462.73132 -465.94733 -472.99695
000270 a4 0a f4 c3 d0 f5 f1 c3 9a ac fb c3 46 aa f4 c3
       -488.08313 -483.9204 -503.34845 -489.33026
000280 fa cc ef c3 24 e8 f6 c3 57 fa fd c3 36 16 01 c4
       -479.60138 -493.8136 -507.95578 -516.34705
000290 27 90 00 c4 a9 2c 01 c4 f6 de 03 c4 d1 02 04 c4
       -514.2524 -516.6978 -527.48376 -528.044
0002a0 70 f7 08 c4 8f 71 06 c4 61 a3 06 c4 0a 3d 08 c4
       -547.8662 -537.77435 -538.5528 -544.95374
0002b0 30 16 08 c4 69 9e 06 c4 ef 72 07 c4 1e 5b 07 c4
       -544.3467 -538.47516 -541.79584 -541.4237
0002c0 e1 f4 06 c4 69 21 08 c4 f0 90 0a c4 38 ea 0e c4
       -539.82623 -544.52203 -554.26465 -571.65967
0002d0 00 00 00 00 00 00 00 00 00 00 00 00 6e df 83 42
       0.0 0.0 0.0 65.936386
0002e0 be ce 58 42 b8 94 5b 42 0c b1 72 42 3e 7f 69 42
       54.201897 54.895233 60.672897 58.37426
0002f0 0b 52 58 42 9a 4c 5e 42 8b 4c 6c 42 75 37 51 42
       54.08012 55.574806 59.07475 52.304157
000300 bc db 57 42 71 86 51 42 1a c6 30 42 20 7b 49 42
       53.964584 52.38129 44.19346 50.37024
000310 1e b1 6b 42 ec 90 81 42 44 76 8a 42 14 aa 8f 42
       58.922966 64.78305 69.23099 71.832184
000320 4e b0 66 42 ce 09 4b 42 51 c2 33 42 4e 41 37 42
       57.672173 50.759575 44.939762 45.813774
000330 ef 48 4b 42 d8 62 58 42 e6 c4 55 42 2b ff 6e 42
       50.821224 54.096527 53.442284 59.749187
000340 48 7e 81 42 3c 35 6a 42 2e df 65 42 4a 94 87 42
       64.74664 58.551987 57.46795 67.78963
000350 d0 ad 4a 42 0c 8e 73 42 30 92 83 42 ee 53 80 42
       50.66974 60.888718 65.78552 64.163925
000360 e8 ae 8e 42 70 81 93 42 34 c3 88 42 22 1d 6a 42
       71.34161 73.75281 68.381256 58.52845
000370 c3 1b 50 42 2a 81 35 42 02 77 bc 40 38 af 29 c1
       52.02711 45.376137 5.8895273 -10.605278
000380 de ec 08 42 2c 67 35 42 76 81 60 42 5e 81 49 42
       34.231316 45.350754 56.126427 50.376335
000390 74 d8 60 42 b5 97 79 42 f0 b5 6d 42 72 5d 62 42
       56.21138 62.39815 59.427673 56.591255
0003a0 ac 93 2f c1 2a fa a1 c1 72 cb 83 3e e4 ef 86 41
       -10.973553 -20.24715 0.25741154 16.867134
0003b0 3a 8d 13 42 b8 a6 20 42 93 53 05 42 4a e2 07 42
       36.887917 40.16281 33.331615 33.970985
0003c0 b9 16 3b 42 60 e3 30 42 cc 66 51 42 81 1f 48 42
       46.77219 44.222046 52.350388 50.030766
0003d0 66 cf 5c 42 11 ef 68 42 e0 8a 69 42 3c ef 5c 42
       55.202538 58.233463 58.38562 55.233627
0003e0 19 0c 6e 42 88 ad 38 42 0f aa 5d 42 e0 af 32 42
       59.511814 46.169464 55.416073 44.671753
0003f0 f0 e8 4c 42 c7 48 05 42 8e 97 1b 42 74 22 3b 42
       51.227478 33.32107 38.898003 46.783646
