recordings/ayam/ayam_8ea8cb0c-ba99-4eff-b0dc-555565598ab9_mfcc.npy (npy, 10372 bytes, 1 tensors)

array f4 [13, 197]
0	0xc42f519e	-701.27527
1	0xc42f519e	-701.27527
2	0xc42f519e	-701.27527
3	0xc41a3564	-616.8342
4	0xc40da005	-566.5003
5	0xc40f8777	-574.11664
6	0xc40da155	-566.5208
7	0xc40ec93a	-571.14417
8	0xc41097bc	-578.37085
9	0xc40fecc9	-575.69977
10	0xc40dd824	-567.3772
11	0xc40bc3b4	-559.05786
12	0xc40e3b45	-568.9261
13	0xc40edf6c	-571.49097
14	0xc40ef139	-571.7691
15	0xc40de08b	-567.5085
16	0xc4101b53	-576.42694
17	0xc413e3eb	-591.5612
18	0xc411a694	-582.6028
19	0xc411ae98	-582.728
20	0xc411969d	-582.35333
21	0xc4130bc5	-588.1839
22	0xc413fd1b	-591.9548
23	0xc4179725	-606.36163
24	0xc41782b4	-606.04224
25	0xc413043c	-588.06616
26	0xc4137c0f	-589.9384
27	0xc412b8d1	-586.88776
28	0xc414579b	-593.36884
29	0xc414f8bd	-595.88654
30	0xc415cb88	-599.1802
31	0xc415e26e	-599.53796
32	0xc4137961	-589.89655
33	0xc41347c1	-589.12115
34	0xc413c1af	-591.0263
35	0xc414c3ae	-595.0575
36	0xc4185679	-609.35114
37	0xc417bd12	-606.9542
38	0xc416eed8	-603.73193
39	0xc4160adb	-600.1696
40	0xc4142d57	-592.70844
41	0xc413443d	-589.0662
42	0xc41327a8	-588.6196
43	0xc414cf58	-595.23975
44	0xc4156687	-597.602
45	0xc4143d4d	-592.9578
46	0xc4159b79	-598.42926
47	0xc4174c67	-605.1938
48	0xc4163893	-600.884
49	0xc4150791	-596.1182
50	0xc4134c2e	-589.1903
51	0xc417c64f	-607.0986
52	0xc4162111	-600.51666
53	0xc414ce9f	-595.22845
54	0xc4144351	-593.0518
55	0xc413fd7e	-591.9608
56	0xc4171651	-604.3487
57	0xc412747a	-585.81995
58	0xc4120bcf	-584.1845
59	0xc41228b8	-584.6362
60	0xc40cd123	-563.26776
61	0xc40d5236	-565.28455
62	0xc4106cdf	-577.7011
63	0xc4109bd8	-578.43506
64	0xc40f916a	-574.2721
65	0xc40ef3a4	-571.8069
66	0xc40f7364	-573.803
67	0xc410b987	-578.89886
68	0xc4102924	-576.6428
69	0xc40e80b9	-570.0113
70	0xc40bb353	-558.80194
71	0xc40a7578	-553.83545
72	0xc40a7dcb	-553.9655
73	0xc40bf3bc	-559.80835
74	0xc4122865	-584.63116
75	0xc40dc325	-567.04913
76	0xc4085dbb	-545.46454
77	0xc40e2cd7	-568.7006
78	0xc41129ba	-580.652
79	0xc40d90c6	-566.2621
80	0xc40c676a	-561.61584
81	0xc40d3388	-564.8052
82	0xc40e8535	-570.08136
83	0xc40fcb61	-575.1778
84	0xc40caf47	-562.7387
85	0xc40d4fbb	-565.2458
86	0xc410fcbb	-579.9489
87	0xc41410a3	-592.25995
88	0xc41193ba	-582.3082
89	0xc410c9f4	-579.1555
90	0xc411b740	-582.8633
91	0xc4102e3b	-576.72235
92	0xc40fd5f9	-575.3433
93	0xc40ec10d	-571.0164
94	0xc40c06ed	-560.1082
95	0xc40f0e29	-572.22125
96	0xc40d9953	-566.3957
97	0xc40fa713	-574.61053
98	0xc4116f2a	-581.73694
99	0xc40e99de	-570.4042
100	0xc410a0ae	-578.5106
101	0xc40d2791	-564.6182
102	0xc40c8e04	-562.219
103	0xc40e64e8	-569.57666
104	0xc412e2e2	-587.54504
105	0xc41246d6	-585.1068
106	0xc40aa3e7	-554.561
107	0xc3d80289	-432.0198
108	0xc3c53a7c	-394.4569
109	0xc3b76d5c	-366.85437
110	0xc3a9d514	-339.66467
111	0xc3a43981	-328.44925
112	0xc39cacff	-313.35153
113	0xc399be69	-307.48758
114	0xc3994966	-306.57343
115	0xc394fad8	-297.95972
116	0xc394ddd3	-297.733
117	0xc392b675	-293.42545
118	0xc39079a7	-288.9504
119	0xc388c6b8	-273.5525
120	0xc38d7056	-282.87762
121	0xc39b3f58	-310.49487
122	0xc39f30d9	-318.38162
123	0xc3a3b67c	-327.42566
124	0xc3a6569e	-332.6767
125	0xc3a8e196	-337.7624
126	0xc3a94655	-338.54947
127	0xc3ae614f	-348.76022
128	0xc3aecb5d	-349.58878
129	0xc3b1111a	-354.1336
130	0xc3b661aa	-364.763
131	0xc3b925d9	-370.2957
132	0xc3bad41c	-373.6571
133	0xc3b9f4dd	-371.913
134	0xc3c587de	-395.06146
135	0xc3c492ca	-393.1468
136	0xc3c479f5	-392.9528
137	0xc3c8108e	-400.12933
138	0xc3c1877e	-387.05853
139	0xc3b23505	-356.4142
140	0xc3afe045	-351.7521
141	0xc39abd28	-309.47778
142	0xc380bcb7	-257.47433
143	0xc3827369	-260.90164
144	0xc37fa10b	-255.62907
145	0xc374dc3e	-244.86032
146	0xc37388ce	-243.5344
147	0xc3775bcc	-247.35858
148	0xc3815c2f	-258.72018
149	0xc3870018	-270.00073
150	0xc38bdb09	-279.7112
151	0xc391c8cb	-291.5687
152	0xc396ad8c	-301.35583
153	0xc39e0db9	-316.1072
154	0xc3b34515	-358.5397
155	0xc3bee527	-381.79025
156	0xc3c49129	-393.13406
157	0xc3c4eb06	-393.83612
158	0xc3ca49c4	-404.5763
159	0xc3d5c756	-427.5573
160	0xc3d84873	-432.566
161	0xc3da49c9	-436.57645
162	0xc3dfa35d	-447.27628
163	0xc3e58e51	-459.11185
164	0xc3ecf140	-473.88477
165	0xc3ef973a	-479.18146
166	0xc3ef9885	-479.19156
167	0xc3ed8888	-475.06665
168	0xc3ebc4bf	-471.53708
169	0xc3f04594	-480.54358
170	0xc3fbeb33	-503.8375
171	0xc3fd6adc	-506.83484
172	0xc4004224	-513.03345
173	0xc3ff316b	-510.38608
174	0xc4003a52	-512.91125
175	0xc401aa8b	-518.66473
176	0xc4030d72	-524.2101
177	0xc406a814	-538.6262
178	0xc4076b06	-541.67224
179	0xc4061ba2	-536.43176
180	0xc407cb59	-543.1773
181	0xc408f45c	-547.8181
182	0xc40c5567	-561.3344
183	0xc40b4e5b	-557.2243
184	0xc40eefba	-571.7457
185	0xc40ee025	-571.50226
186	0xc40eabf6	-570.6869
187	0xc40c6ede	-561.7323
188	0xc40bbbee	-558.9364
189	0xc40d7552	-565.8331
190	0xc40c1e11	-560.4698
191	0xc40d0bd5	-564.1849
192	0xc40dd421	-567.3145
193	0xc40d3c12	-564.9386
194	0xc40d5951	-565.39557
195	0xc40cb542	-562.83215
196	0xc41263c1	-585.55865
197	0x00000000	0.0
198	0x00000000	0.0
199	0x00000000	0.0
200	0x426a4f1e	58.577263
201	0x4289e8a0	68.954346
202	0x42901202	72.03517
203	0x42928df7	73.277275
204	0x428083e0	64.25757
205	0x426c629c	59.0963
206	0x4274d7a4	61.210587
207	0x4293fb77	73.99114
208	0x428ca21c	70.31662
209	0x428018fb	64.04879
210	0x42740a75	61.010212
211	0x4241426f	48.314877
212	0x427678ab	61.61784
213	0x4261a8b4	56.41475
214	0x4245244c	49.285446
215	0x424e8d91	51.63825
216	0x42470fdd	49.76549
217	0x4263d49f	56.957638
218	0x4261f822	56.492317
219	0x4244dae4	49.21376
220	0x421f6b18	39.854584
221	0x422605ce	41.50567
222	0x42791666	62.271873
223	0x4256be00	53.685547
224	0x425763b4	53.847366
225	0x426b871c	58.881943
226	0x424b9e04	50.904312
227	0x42544d02	53.075203
228	0x42495f6e	50.343193
229	0x426b1074	58.766068
230	0x425d927e	55.39306
231	0x426edb45	59.71413
232	0x427cbcf4	63.184525
233	0x42590fbe	54.265373
234	0x426baef8	58.920868
235	0x42797408	62.36331
236	0x42635946	56.83718
237	0x42748ae8	61.13565
238	0x428389d2	65.76918
239	0x4282032f	65.00622
240	0x4286e4c4	67.44681
241	0x4256fa8e	53.744682
242	0x425945a0	54.317993
243	0x425bcd3c	54.950424
244	0x4231a280	44.40869
245	0x424bf5ee	50.990166
246	0x42721ca8	60.527985
247	0x42894580	68.63574
248	0x427a01f2	62.5019
249	0x4270e482	60.223152
250	0x42537adc	52.86998
251	0x426fb752	59.929024
252	0x42739814	60.898514
253	0x423e29ec	47.54094
254	0x423ece84	47.701675
255	0x4243ad1c	48.919052
